…
        "colab": {
          "base_uri": "https://localhost:8080/",
          "height": 550
        }
      },
      "source": [
        "model.summary()"
      ],
      "execution_count": 203,
      "outputs": [
        {
          "output_type": "stream",
          "text": [
            "Model: \"sequential_3\"\n",
            "_________________________________________________________________\n",
            "Layer (type)                 Output Shape              Param #   \n",
            "=================================================================\n",
            "conv2d_9 (Conv2D)            (None, 200, 200, 16)      448       \n",
            "_________________________________________________________________\n",
            "max_pooling2d_9 (MaxPooling2 (None, 100, 100, 16)      0         \n",
            "_________________________________________________________________\n",
            "conv2d_10 (Conv2D)           (None, 100, 100, 32)      4640      \n",
            "_________________________________________________________________\n",
            "max_pooling2d_10 (MaxPooling (None, 50, 50, 32)        0         \n",
            "_________________________________________________________________\n",
            "conv2d_11 (Conv2D)           (None, 50, 50, 64)        18496     \n",
            "_________________________________________________________________\n",
            "max_pooling2d_11 (MaxPooling (None, 25, 25, 64)        0         \n",
            "_________________________________________________________________\n",
            "flatten_3 (Flatten)          (None, 40000)             0         \n",
            "_________________________________________________________________\n",
            "dropout_6 (Dropout)          (None, 40000)             0         \n",
            "_________________________________________________________________\n",
            "dense_6 (Dense)              (None, 512)               20480512  \n",
            "_________________________________________________________________\n",
            "dropout_7 (Dropout)          (None, 512)               0         \n",
            "_________________________________________________________________\n",
            "dense_7 (Dense)              (None, 15)                7695      \n",
            "=================================================================\n",
            "Total params: 20,511,791\n",
            "Trainable params: 20,511,791\n",
            "Non-trainable params: 0\n",
            "_________________________________________________________________\n"
          ],
          "name": "stdout"
        }
      ]
    },
    {
      "cell_type": "code",
…
